Assets/Move.onnx (onnx, 75061 bytes, 7 tensors)

network_body._body_endoder.seq_layers.0.weight f4 [128, 6]
0.4325896 0.11998942 -0.19827321 -0.14111602 -0.5391816 -0.059639245 0.9066943 -0.54284257
0.50100523 -0.64214253 0.556199 0.57935643 -0.28611693 0.06263946 -0.24616727 -0.2850559
-0.15942441 -0.10198154 -0.4046594 0.09944838 0.540299 0.043623105 -0.40105438 -0.46149427
-0.6744259 0.084985815 -0.04681486 0.4489572 -0.16401887 -0.6985886 0.2169312 -0.61969244
0.6235583 0.19093375 -0.18413685 0.1599321 0.02240266 0.35050607 0.3226134 0.41348043
-0.30019882 0.29244244 -0.38988003 -0.3367107 -0.5622663 0.12550727 0.75031936 -0.052038074
-0.037084725 -0.32140994 0.34227505 0.7505804 0.17058766 -0.21470432 0.44630632 0.28574985
1.0221714 0.022969402 0.43492898 0.7080982 -0.20386028 0.08284193 -0.16179588 -0.08894182
0.5987899 -0.46013853 0.5137683 -0.35146138 -0.28879872 0.07008893 -0.86435 0.16087109
-0.5944759 0.17835158 0.49679062 -0.28888628 0.5785889 -0.6116283 0.5726252 0.11858201
0.50230044 -0.06361018 0.6468498 0.30247614 -0.21190138 0.21627124 -0.19410262 -0.13356158
-1.1210885 0.12585223 0.22123279 -0.73357135 0.15414351 -0.21127725 -0.13218941 -0.08091896
0.037352215 0.28259605 -0.41873255 0.51430917 0.3592065 -0.29013646 -0.5358866 0.31052402
-0.3886181 -0.05022635 -0.20141591 -0.08861394 0.9320482 -0.10101378 -0.31089494 0.5574923
0.151527 0.7214614 0.93841916 0.43596202 -0.0024852483 -0.37609977 0.105149716 0.56867105
0.50319225 0.53033096 -0.5429564 0.71458316 -0.20264554 0.21657084 -0.046846725 -0.176732
0.018323965 0.59670186 -0.5483056 -0.50665224 0.25236875 0.0925605 0.56068623 -1.12896305e-05
0.30681568 2.8893555e-07 0.97197473 0.2987239 -0.35124663 0.23256922 -0.94329566 -0.08626256
0.47153842 0.30819628 0.20287937 -0.5756706 -0.3093992 0.08891919 0.6387815 -0.25858828
0.3817465 0.30513498 0.31372356 -0.0018130627 0.58455235 0.16781765 -0.805406 0.34630772
0.2634058 -0.076033205 0.080036126 -0.5231745 0.11034052 -0.50367105 0.32892716 -0.4303085
-0.040275294 0.55768895 0.064706415 -0.025086237 0.04450626 0.03205056 -0.8617866 0.5141576
0.56106734 0.23707622 0.11565277 -0.055002898 -0.6271272 0.87593156 1.0770853 0.61033803
0.32202607 -0.25371903 -0.4733372 -0.2907666 -0.38706812 0.020172339 0.09381589 1.0020609
0.066482745 0.23054913 -0.20694284 -0.074591994 -0.042473223 -0.48308134 0.099924974 -0.3321508
-0.8742123 0.39125478 0.057059944 -0.2063338 -0.3133111 0.33654517 0.46787703 0.12319688
0.40285325 0.09703867 1.306046 0.60247916 -0.5636468 0.32813424 0.28034267 -0.018963087
-0.3738555 0.1798454 0.039414432 -0.42370522 -0.6298696 0.17796135 0.73900783 0.1765495
0.6740251 -0.2446399 -0.78543013 -0.39254704 -0.42167908 0.36840126 0.6654766 -0.9603363
0.3802087 0.11551761 -0.03887368 0.15247852 0.5348255 -0.20741971 0.33839986 -0.07576434
-0.057004437 0.09980405 -0.5581638 0.5295616 0.23641516 -0.37018552 0.020010632 0.28986877
-0.15806772 1.2292523 -0.61013466 0.040908165 0.17937644 -0.8113977 0.20954867 -0.020919194
00000000: 627c dd3e 03bd f53d 2208 4bbe b880 10be
00000010: ce07 0abf 4848 74bd 1e1d 683f bbf7 0abf
00000020: e141 003f 7463 24bf 0f63 0e3f b450 143f
00000030: eb7d 92be 1e49 803d 4613 7cbe d9f2 91be
00000040: 2740 23be b3db d0bd 842f cfbe 98ab cb3d
00000050: 0951 0a3f 24ae 323d 0057 cdbe fa48 ecbe
00000060: 2da7 2cbf 0b0d ae3d f0c0 3fbd b8dd e53e
00000070: 90f4 27be b4d6 32bf 3623 5e3e 2aa4 1ebf
00000080: 84a1 1f3f 2384 433e 5f8e 3cbe 3ec5 233e
00000090: c985 b73c 8875 b33e 952d a53e b5b3 d33e
000000a0: a9b3 99be 04bb 953e 5b9e c7be 5865 acbe
000000b0: aff0 0fbf fa84 003e ee14 403f e025 55bd
000000c0: 27e6 17bd d88f a4be ad3e af3e 0926 403f
000000d0: 88ae 2e3e 73db 5bbe 4382 e43e ce4d 923e
000000e0: 83d6 823f 542a bc3c 03af de3e ec45 353f
000000f0: c0c0 50be 08a9 a93d d2ad 25be 2127 b6bd
00000100: 4b4a 193f 4797 ebbe 5286 033f bff2 b3be
00000110: 6ddd 93be c98a 8f3d 0b46 5dbf 64bb 243e
00000120: 932f 18bf cca1 363e 575b fe3e e7e8 93be
00000130: 671e 143f ac93 1cbf 9197 123f 20db f23d
00000140: c396 003f 0e46 82bd f397 253f 27de 9a3e
00000150: adfc 58be 3576 5d3e d6c2 46be 5ec4 08be
00000160: d47f 8fbf 68df 003e d98a 623e 55cb 3bbf
00000170: ccd7 1d3e 1059 58be a95c 07be d7b8 a5bd
00000180: a3fe 183d 6eb0 903e 1d64 d6be c4a9 033f
00000190: eae9 b73e c48c 94be dd2f 09bf 01fd 9e3e
000001a0: f4f8 c6be 25ba 4dbd f93f 4ebe 3a7b b5bd
000001b0: b69a 6e3f 50e0 cebd 9f2d 9fbe d1b7 0e3f
000001c0: e529 1b3e b2b1 383f 3d3c 703f 6a36 df3e
000001d0: 8cdf 22bb 2690 c0be bc58 d73d 6d94 113f
000001e0: 35d1 003f c5c3 073f 31ff 0abf ecee 363f
000001f0: 5082 4fbe bfc4 5d3e 5ae2 3fbd 3cf9 34be
00000200: 241c 963c 74c1 183f c15d 0cbf f6b3 01bf
00000210: 7a36 813e 5c90 bd3d 2289 0f3f 9868 3db7
00000220: f216 9d3e 001f 9b34 56d3 783f 57f2 983e
00000230: 99d6 b3be a026 6e3e d37b 71bf 6daa b0bd
00000240: 7c6d f13e e7cb 9d3e 9cbf 4f3e 265f 13bf
00000250: 9269 9ebe 441b b63d 2f87 233f af65 84be
00000260: 4774 c33e a73a 9c3e 60a0 a03e 4aa4 edba
00000270: 39a5 153f 64d8 2b3e 162f 4ebf 3f4f b13e
00000280: 20dd 863e 4cb7 9bbd fbe9 a33d c4ee 05bf
00000290: 36fa e13d 96f0 00bf 2469 a83e 6551 dcbe
000002a0: b5f7 24bd b4c4 0e3f cc84 843d a781 cdbc
000002b0: 324c 363d 7347 033d 0c9e 5cbf d59f 033f
000002c0: 1ca2 0f3f 1cc4 723e 5cdb ec3d b84a 61bd
000002d0: 688b 20bf 0d3d 603f eedd 893f 1d3f 1c3f
000002e0: 9ae0 a43e 76e7 81be 4159 f2be 5cdf 94be
000002f0: cb2d c6be 7640 a53c 8c22 c03d 8843 803f
00000300: 1b28 883d 1215 6c3e d3e8 53be b0c3 98bd
00000310: 67f8 2dbd 7056 f7be 77a5 cc3d ab0f aabe
00000320: 61cc 5fbf 8c52 c83e b0b7 693d 2b49 53be
00000330: 506a a0be a64f ac3e 948d ef3e a54e fc3d
00000340: c842 ce3e 36bc c63d 842c a73f 133c 1a3f
00000350: 284b 10bf 3601 a83e 1389 8f3e 7a58 9bbc
00000360: fd69 bfbe 6429 383e 0771 213d e4ef d8be
00000370: 223f 21bf 803b 363e 9e2f 3d3f 64c9 343e
00000380: e98c 2c3f e282 7abe f311 49bf edfb c8be
00000390: 52e6 d7be 179f bc3e ad5c 2a3f 9ad8 75bf
000003a0: b7aa c23e 7f94 ec3d 023a 1fbd 5423 1c3e
000003b0: 53ea 083f d565 54be bf42 ad3e 562a 9bbd
000003c0: 7c7d 69bd 1166 cc3d d3e3 0ebf 5991 073f
000003d0: d116 723e f588 bdbe 56ed a33c ae69 943e
000003e0: 81dc 21be 2458 9d3f c931 1cbf 528f 273d
000003f0: 75ae 373e c2b7 4fbf ed93 563e bb5e abbc

network_body._body_endoder.seq_layers.0.bias f4 [128]
-0.011635012 0.036256347 -0.002953614 0.041871343 -0.04430393 0.044771917 -0.03050622 -0.051997323
0.00016562466 0.040103212 -0.06615763 -0.030449536 -0.0068018017 0.07959799 -0.0050197756 0.053735532
0.006673837 -0.075011924 0.08499796 -0.02207418 0.020988433 -0.09157663 -0.008498905 0.037636273
0.047811653 0.06087446 -0.03632309 0.008875857 -0.08545428 0.0672008 -0.007885275 -0.04983299
0.0043102438 0.021058599 -0.053785674 0.062431663 -0.02020524 0.069651775 -0.025709054 -0.0065538813
0.036929186 -0.044756975 0.016780334 0.034574065 -0.052172627 -0.027339706 0.07297767 0.010587541
-0.07955155 0.0556404 -0.085670225 0.12681967 -0.012537719 0.040766474 -0.028738122 -0.018635701
-0.03133287 -0.0008624945 0.011999923 -0.030241929 0.0032970398 0.0063471063 0.048407726 0.004564365
-0.006782601 0.05188178 -0.12292846 0.01057904 -0.01273262 -0.008341364 0.08101168 0.022057015
-0.025464386 0.010682748 -0.02108284 -7.5796175e-05 -0.03514354 -0.01946782 -0.010950142 -0.014172785
0.09860401 0.0146817565 0.06323988 0.007994392 0.11237185 -0.054979857 -0.0091817 -0.033245314
-0.04441986 0.00031909713 -0.041902024 0.023539918 -0.011370008 -0.02175885 -0.074850425 -0.005728993
-0.024894862 -0.014226213 0.021656575 0.020370934 0.0021632442 0.046137936 0.039740216 -0.03160473
-0.019786589 -0.044340122 -0.05667094 0.029009623 -0.059470326 -0.050073665 -0.0035740111 -0.07788216
-0.032942567 -8.0814185e-05 -0.05447973 -0.1116132 0.13576467 -0.048879437 -0.0222936 0.027021246
0.040470727 0.048378773 -0.026286777 0.010496437 -0.067572944 -0.030939784 -0.049963154 0.070130706
00000000: c7a0 3ebc 8981 143d 6c91 41bb 4981 2b3d
00000010: 0a78 35bd c262 373d 2ee8 f9bc 25fb 54bd
00000020: 88ab 2d39 4443 243d a77d 87bd 4e71 f9bc
00000030: a6e1 debb 4504 a33d ee7c a4bb ca19 5c3d
00000040: 34b0 da3b da9f 99bd 6913 ae3d e9d4 b4bc
00000050: efef ab3c 878c bbbd fe3e 0bbc 7e28 1a3d
00000060: 27d6 433d 7f57 793d 85c7 14bd 0b6c 113c
00000070: a702 afbd 93a0 893d 3e31 01bc ad1d 4cbd
00000080: f23c 8d3b 1583 ac3c 5e4e 5cbd 58b8 7f3d
00000090: 7685 a5bc 97a5 8e3d cb9b d2bc f1c1 d6bb
000000a0: 0f43 173d 1753 37bd e976 893c 899d 0d3d
000000b0: f7b2 55bd 85f7 dfbc 5175 953d 5e77 2d3c
000000c0: eceb a2bd 30e7 633d df73 afbd 04dd 013e
000000d0: 016b 4dbc bffa 263d 366c ebbc e6a9 98bc
000000e0: e556 00bd 0719 62ba 539b 443c ecbd f7bc
000000f0: 2613 583b 63fb cf3b 2e47 463d ab90 953b
00000100: 9540 debb fd81 543d ebc1 fbbd b653 2d3c
00000110: 7b9c 50bc 37aa 08bc 74e9 a53d eab0 b43c
00000120: b09a d0bc b106 2f3c ecb5 acbc c3f4 9eb8
00000130: acf2 0fbd fa7a 9fbc 3968 33bc f834 68bc
00000140: e6f0 c93d c08b 703c e983 813d e9fa 023c
00000150: 3623 e63d 8f32 61bd d76e 16bc 3d2c 08bd
00000160: 99f1 35bd 7e4c a739 75a1 2bbd c9d6 c03c
00000170: 4549 3abc 9e3f b2bc 2e4b 99bd 47ba bbbb
00000180: 4ff0 cbbc 1015 69bc 2169 b13c f2e0 a63c
00000190: 37c5 0d3b 22fb 3c3d a3c6 223d f673 01bd
000001a0: 7c17 a2bc fd9d 35bd ca1f 68bd 97a5 ed3c
000001b0: 2897 73bd 0b1a 4dbd f539 6abb af80 9fbd
000001c0: c9ee 06bd c97a a9b8 2326 5fbd 7695 e4bd
000001d0: e505 0b3e ce35 48bd 11a1 b6bc a95b dd3c
000001e0: a2c4 253d d228 463d 5e57 d7bc 3ff9 2b3c
000001f0: af63 8abd 6e75 fdbc 2aa6 4cbd b0a0 8f3d

network_body._body_endoder.seq_layers.2.weight f4 [128, 128]
0.08200361 -0.2684737 -0.14757258 -0.027209157 0.015818788 0.06271053 0.022468964 -0.00507698
-0.020339012 0.038954787 -0.03376723 0.07492474 0.12249005 0.10920176 0.14987871 0.10376303
0.11145446 0.07124432 -0.06281499 -0.12078418 -0.09014974 0.014495826 0.17515637 -0.052246727
-0.20186308 0.05560816 -0.0042754356 -0.0031450305 0.024886562 -0.0629348 -0.023871638 0.013637888
0.057734266 0.036873713 0.104348384 0.078514405 -0.06828426 0.06533522 -0.10072875 0.17123587
0.24156564 0.116115525 0.07187079 0.124533206 0.04800762 0.12946427 0.03770564 0.024232062
0.10840363 0.063142754 0.10548846 0.015952341 0.11035659 0.06683411 -0.11268987 0.0069012
0.050746247 0.07726331 -0.05667933 0.014768222 0.12671526 -0.2817718 -0.0008658449 0.09289483
-0.17864104 0.24447024 0.13128479 0.10403993 -0.22702089 -0.0019064808 -0.21100065 -0.07910972
-0.016351989 0.20494072 0.17835848 -0.19423099 -0.24066935 0.249938 -0.009346443 0.13005117
-0.07749674 0.10112928 -0.028595211 0.2259225 0.04067779 -0.044451006 0.024276914 -0.038065013
-0.09406224 -0.003138308 0.14437656 0.3592494 -0.22778267 0.054983083 -0.024596138 -0.066264935
0.03860117 0.11488054 -0.07344813 0.14371063 -0.019353934 -0.16703472 0.48902795 0.06687355
-0.09249091 0.030202283 -0.06554873 0.33335507 0.20308074 -0.19262232 0.032446433 -0.04878077
0.11500248 0.067826755 -0.016944047 0.09374737 0.016725613 -0.0711614 -0.005780829 0.15352376
0.030693665 -0.023416698 -0.088128865 -0.09062607 0.038738366 -0.22738643 0.03956774 0.14149594
0.11490635 0.10689774 -0.015984422 0.0048099593 -0.24302472 0.1907253 0.21947758 -0.10254119
-0.09627046 0.059817877 -0.04150088 0.076791786 0.04454343 -0.088027835 -0.07032694 0.11916973
-0.040007543 -0.015660957 -0.05003304 0.04056779 0.1649709 0.014888411 0.10303606 0.051275965
-0.099105634 0.27518192 -0.052278917 0.0888481 0.07144672 0.09925382 0.017481057 -0.13288017
-0.028216667 -0.08228283 -0.0006033939 -0.16679375 -0.12882371 0.27392805 0.048370633 -0.07720158
0.056987256 -0.009845745 0.3415112 -0.07561321 0.11456892 0.048795797 0.038740974 0.3820294
-0.052006498 0.113209195 -0.002723599 0.3214079 -0.019516049 -0.032319333 -0.047947094 -0.21256441
0.23541033 -0.06359174 -0.085627295 -0.15756877 0.35235944 0.107807666 -0.14837533 -0.058621213
-0.10904892 0.1314765 -0.15789197 -0.04572523 -0.06851162 0.27923033 -0.007879636 -0.021643475
0.01590132 -0.04633424 0.27105096 0.00838249 0.044817492 0.16891935 -0.023957856 -0.039667435
0.28818554 0.04319181 0.08766357 0.13957109 0.037693396 -0.024675414 -0.029897364 -0.15021273
0.10838487 0.0060217935 0.046148513 -0.18016216 0.033731386 -0.21063828 0.025263924 -0.023043111
-0.10925305 0.056425236 0.22231156 -0.17232025 0.16615726 -0.06502658 0.0946529 -0.025484016
-0.10911061 0.03785269 0.005363649 -0.09325604 -0.003979068 -0.227053 0.086711995 -0.04595333
-0.120434605 -0.07936294 -0.10348891 -0.13343649 -0.09151376 -0.022451196 0.07879114 -0.03318328
-0.17706302 0.20806207 -0.059199333 -0.03425074 0.01663182 -0.069055505 -0.010809712 -0.05648306
00000000: 82f1 a73d 6375 89be 441d 17be bde5 debc
00000010: 6796 813c 616e 803d d510 b83c cc5c a6bb
00000020: 009e a6bc 0e8f 1f3d 824f 0abd 2472 993d
00000030: 10dc fa3d 2ca5 df3d ce79 193e b681 d43d
00000040: 3c42 e43d 8be8 913d 25a5 80bd b25d f7bd
00000050: 6da0 b8bd e77f 6d3c 315c 333e aa00 56bd
00000060: 32b5 4ebe 62c5 633d f418 8cbb db1c 4ebb
00000070: e7de cb3c f6e3 80bd 748e c3bc 7371 5f3c
00000080: c47a 6c3d e408 173d 9bb4 d53d 29cc a03d
00000090: 9ed8 8bbd 79ce 853d e04a cebd 7558 2f3e
000000a0: fc5c 773e facd ed3d fe30 933d 440b ff3d
000000b0: a3a3 443d 4892 043e 3b71 1a3d 5182 c63c
000000c0: b902 de3d fd50 813d 550a d83d 7cae 823c
000000d0: a302 e23d 52e0 883d f2c9 e6bd 7623 e23b
000000e0: 4cdb 4f3d 3a3c 9e3d 9628 68bd 6af6 713c
000000f0: a5c1 013e 6544 90be def9 62ba a53f be3d
00000100: aded 36be 6856 7a3e 856f 063e e312 d53d
00000110: 2a78 68be e1e2 f9ba 8e10 58be 4704 a2bd
00000120: 9bf4 85bc fbdb 513e 9ba3 363e 7de4 46be
00000130: 0772 76be bfef 7f3e d321 19bc 222c 053e
00000140: 9cb6 9ebd de1c cf3d 8140 eabc 3a58 673e
00000150: c19d 263d 4212 36bd 61e0 c63c 0fea 1bbd
00000160: b4a3 c0bd 12ac 4dbb 73d7 133e 8aef b73e
00000170: dc3f 69be f135 613d d77d c9bc e9b5 87bd
00000180: 431c 1e3d 7d46 eb3d f96b 96bd e128 133e
00000190: 248c 9ebc 260b 2bbe df61 fa3e 00f5 883d
000001a0: e06b bdbd c76a f73c 6a3e 86bd 84ad aa3e
000001b0: 66f4 4f3e c93e 45be 8de6 043d 58ce 47bd
000001c0: 6c86 eb3d c1e8 8a3d 3ece 8abc 9ffe bf3d
000001d0: 2704 893c 11bd 91bd 1c6d bdbb 5535 1d3e
000001e0: 4871 fb3c 60d4 bfbc e87c b4bd 299a b9bd
000001f0: 1fac 1e3d fdd7 68be c811 223d 50e4 103e
00000200: 0554 eb3d 34ed da3d c3f1 82bc dd9c 9d3b
00000210: 79db 78be 7e4d 433e bbbe 603e 1e01 d2bd
00000220: 7229 c5bd 9703 753d d4fc 29bd 0345 9d3d
00000230: 2c73 363d f047 b4bd 9207 90bd 420f f43d
00000240: f3de 23bd 684b 80bc 72ef 4cbd 692a 263d
00000250: 22ee 283e 86ee 733c 9204 d33d bf06 523d
00000260: e5f7 cabd a5e4 8c3e 6b22 56bd fef5 b53d
00000270: a852 923d 9645 cb3d 6f34 8f3c bd11 08be
00000280: a426 e7bc e683 a8bd 142d 1eba fbcb 2abe
00000290: 5dea 03be 4c40 8c3e 4920 463d dd1b 9ebd
000002a0: 786b 693d 0c50 21bc 8eda ae3e 19db 9abd
000002b0: 1ca3 ea3d 1ade 473d dbae 1e3d 5c99 c33e
000002c0: c404 55bd 39da e73d 697e 32bb 948f a43e
000002d0: 1fe0 9fbc 4761 04bd 2c64 44bd 7caa 59be
000002e0: 680f 713e 633c 82bd 5d5d afbd b559 21be
000002f0: 7568 b43e 44ca dc3d b4ef 17be cc1c 70bd
00000300: 0a55 dfbd c7a1 063e 6fae 21be 614a 3bbd
00000310: d24f 8cbd 47f7 8e3e 9719 01bc a84d b1bc
00000320: 7c43 823c f9c8 3dbd 31c7 8a3e b656 093c
00000330: 8c92 373d 32f9 2c3e 4443 c4bc 527a 22bd
00000340: 0e8d 933e e5e9 303d f588 b33d b9eb 0e3e
00000350: 6464 1a3d 1824 cabc 51eb f4bc 5ed1 19be
00000360: e3f8 dd3d 7752 c53b 3906 3d3d 6e7c 38be
00000370: ec29 0a3d 90b1 57be 4af6 ce3c e8c4 bcbc
00000380: 10c0 dfbd 261e 673d a4a5 633e b874 30be
00000390: 2125 2a3e a82c 85bd 61d9 c13d dbc3 d0bc
000003a0: 6275 dfbd 6c0b 1b3d 8dc1 af3b 06fd bebd
000003b0: d762 82bb 9580 68be 0f96 b13d 8f39 3cbd
000003c0: 6ba6 f6bd 0989 a2bd fef1 d3bd 93a3 08be
000003d0: 916b bbbd 92eb b7bc 405d a13d 31eb 07bd
000003e0: 0250 35be 390e 553e 007b 72bd 814a 0cbd
000003f0: 743f 883c f96c 8dbd 381b 31bc c85a 67bd

network_body._body_endoder.seq_layers.2.bias f4 [128]
-0.050012305 -0.038502615 -0.013979744 -0.027341146 -0.011074761 -0.030217009 0.024521885 -0.018975934
-0.015352966 0.0071654473 -0.019154763 0.002352301 -0.010739667 -0.02078051 -0.035626683 -0.027798673
-0.016747337 -0.03194481 -0.022361364 -0.012092623 -0.08527627 -0.012688427 -0.0065036155 -0.08205519
0.015407106 0.0470814 -0.026311254 -0.040737286 -0.011605413 -0.02683001 -0.016214611 -0.025686657
-0.025930678 -0.018663028 -0.008527353 -0.09957506 -0.027659949 -0.026657142 -0.055182897 -0.03278111
-0.01750317 0.029324405 -0.02641613 -0.042176876 0.012339387 -0.015182417 -0.011632943 -0.13443843
0.00058502035 -0.026998231 -0.14580187 -0.0071030506 -0.03083679 0.015179475 0.004405884 -0.026455024
-0.016365252 -0.0152619295 -0.026029985 0.007204206 -0.01766406 -0.03260237 -0.044502907 0.009671881
-0.0063608694 0.027500851 -0.022344016 -0.07600686 -0.028597888 0.03024518 -0.0012535899 -0.033133212
0.0013960612 -0.090078294 -0.004027042 -0.03366613 -0.04709339 -0.041961536 -0.01841565 -0.039297342
-0.04357901 -0.01833207 -0.019731881 -0.11539372 0.003380287 0.010932564 -0.00459593 -0.0013385176
-0.006320026 -0.00740251 -0.028085077 -0.058418803 -0.0019513565 -0.015329496 -0.013951515 -0.009670237
-0.08140534 -0.02469608 -0.05107389 -0.021808015 -0.055224292 -0.028910749 -0.017644214 -0.0068633836
-0.016443957 -0.011712958 -0.0185622 -0.005536796 -0.028037893 -0.023290237 -0.03332669 -0.14450714
-0.028666703 -0.008221845 0.00085725967 -0.031879853 -0.01857068 -0.0037171303 -0.029261976 -0.016299553
-0.021234835 -0.035171352 0.01584328 -0.02900365 -0.021249214 -0.023681069 0.004386199 -0.013215379
00000000: b4d9 4cbd ebb4 1dbd 4c0b 65bc 8afa dfbc
00000010: ea72 35bc a989 f7bc 1fe2 c83c 6b73 9bbc
00000020: 028b 7bbc 21cc ea3b 73ea 9cbc 1029 1a3b
00000030: 6ef5 2fbc e33b aabc 49ed 11bd 0bba e3bc
00000040: b631 89bc 90d8 02bd 2e2f b7bc 2320 46bc
00000050: 53a5 aebd 1fe3 4fbc 481c d5bb 8d0c a8bd
00000060: 166e 7c3c 6dd8 403d b38a d7bc 24dc 26bd
00000070: a124 3ebc 9cca dbbc 81d4 84bc d36c d2bc
00000080: 936c d4bc 35e3 98bc 50b6 0bbc 02ee cbbd
00000090: 1e97 e2bc 1460 dabc 7607 62bd 7c45 06bd
000000a0: cf62 8fbc bc39 f03c a466 d8bc a9c1 2cbd
000000b0: 242b 4a3c acbf 78bc 1998 3ebc 3aaa 09be
000000c0: 0d5c 193a 652b ddbc 164d 15be b5c0 e8bb
000000d0: 709d fcbc 55b3 783c 3c5f 903b 35b8 d8bc
000000e0: 6c10 86bc 2c0d 7abc d63c d5bc 4311 ec3b
000000f0: 38b4 90bc 108a 05bd ae48 36bd cf76 1e3c
00000100: d76e d0bb 7749 e13c cc0a b7bc 7ca9 9bbd
00000110: 1e46 eabc bdc4 f73c 7f4f a4ba b1b6 07bd
00000120: 0afc b63a f87a b8bd 47f5 83bb 7fe5 09bd
00000130: 00e5 40bd dcdf 2bbd 6bdc 96bc 40f6 20bd
00000140: e77f 32bd 232d 96bc c1a4 a1bc 8b53 ecbd
00000150: ce87 5d3b 7f1e 333c 7599 96bb 3371 afba
00000160: 3818 cfbb c190 f2bb ad12 e6bc 8e48 6fbd
00000170: a9c4 ffba 9128 7bbc e594 64bc ea6f 1ebc
00000180: d8b7 a6bd 6f4f cabc db32 51bd b9a6 b2bc
00000190: de32 62bd 3cd6 ecbc 998a 90bc 3ce6 e0bb
000001a0: 7ab5 86bc b5e7 3fbc c10f 98bc 036e b5bb
000001b0: b9af e5bc 2bcb bebc 9181 08bd aef9 13be
000001c0: 6fd6 eabc ebb4 06bc b9b9 603a 7394 02bd
000001d0: 8a21 98bc 199b 73bb d0b6 efbc a486 85bc
000001e0: adf4 adbc d60f 10bd c4c9 813c 1099 edbc
000001f0: d512 aebc cdfe c1bc 1bba 8f3b 5185 58bc

action_model._continuous_distribution.log_sigma f4 [1, 2]
-1.3391379 -1.365979
00000000: df68 abbf 66d8 aebf

action_model._continuous_distribution.mu.weight f4 [2, 128]
-0.09643065 0.13537352 -0.04373187 0.034835964 0.032052387 0.003609748 0.04060815 0.002918726
0.008720655 -0.0459693 -0.043657545 -0.04487221 -0.07856609 -0.013767357 -0.007775817 -0.08775171
0.0010747965 -0.018702636 -0.0013633388 0.01851376 0.014332212 -0.0012409346 -0.00067154056 -0.00203627
0.03958575 0.15457729 0.0032931818 -0.03663771 0.0024843812 -0.11019066 -0.055331595 -0.13355474
0.0010632838 -0.012490187 -0.00030184985 0.00032695686 0.00048166787 -0.024030851 0.03363202 0.0016590606
-0.0002958792 -0.08113426 -0.0005309055 -0.00095069915 0.018924903 -0.03332672 -0.0024666213 5.3734308e-05
-0.05073758 0.011436909 0.00016427673 -0.015827075 -0.031521033 -0.20582852 0.060733654 0.00032896694
-0.015701717 -0.04303679 -0.048705164 -0.03174862 -0.0020982123 -0.0013804139 0.11429946 -0.03831793
0.075153634 -0.14195919 0.001174175 -0.010383116 -0.00047744947 0.03969269 -0.0050852154 0.018862456
-0.0042818626 -0.00054322 -0.040967565 0.002109412 -0.008785994 -0.011991771 -0.0010661129 -0.0714381
-0.0008112303 0.03985164 0.08821436 0.00018001265 0.10433712 0.0059870207 0.025992686 -0.00033931035
0.056337878 -0.041409507 0.023172194 0.0003388213 0.10052506 -0.0022359143 -0.02133658 0.0013240664
-0.0013052567 -0.0063410318 -0.003317934 -0.0005895063 0.17573018 -0.0021242916 -0.062178273 -0.000109657434
-0.0709206 -0.06379049 -0.06409009 -0.0012068952 -0.022963107 -0.021655869 -0.001528376 0.0011903209
0.003643028 0.060254198 -0.062190827 -0.025813928 0.006326045 0.05260099 0.013854224 0.018789059
0.0014125371 0.13378069 -0.033489678 -0.013277793 -0.094717756 0.00266877 0.17812975 -0.055610795
-0.26555425 -0.03855943 0.018339911 -0.008358268 0.0091606835 -0.0020297254 0.11048849 0.00026087675
-0.009521425 0.03044107 -0.013723258 0.060620748 0.0030084795 -0.009671497 0.0060104057 -0.01981068
-0.00094625924 0.02203753 0.0008510415 0.018796751 -0.0058885 0.0009150464 3.7482323e-06 -0.0012500525
0.08195154 -0.0076732533 -0.00054540724 -0.070977524 -0.0007110471 -0.10097002 -0.025246406 0.089064755
0.00038918798 0.02726288 -0.00020960126 -0.0006817764 0.0011902959 -0.07605284 -0.0030126986 0.0039025086
0.00014647923 0.06030365 0.00080956874 0.00043067284 0.03139169 0.03881057 -0.010531676 0.0003298431
0.018060358 0.00083615567 0.00094904774 0.0032557272 0.05179086 -0.30506963 -0.103749044 0.00046334014
0.037570443 0.061059874 -0.026878169 0.057264943 0.0014367221 -0.0011297427 -0.026423354 -0.059872203
0.02901744 -0.13899644 -0.00018465704 -0.0017625788 -2.9891955e-05 0.037761364 0.0005572264 0.13098031
0.0015604714 0.0009481889 0.054378163 0.0013144937 0.008617083 -0.004023212 0.0008570383 -0.041722745
0.000314804 -0.03484196 -0.011006046 -0.0008232768 -0.09567661 -0.056020394 0.024293862 -0.00016460521
-0.08301962 0.09225349 -0.053829964 -0.001961107 -0.0051862993 0.000117327276 0.04487224 -0.00024402437
-0.0030845574 0.00931884 0.0013755828 -0.000624843 -0.0033379688 -0.00030003104 -0.049781255 0.00042591165
0.11187935 0.0025288707 -0.08457256 0.00033660862 -0.064844534 0.06781321 0.00046783386 -0.0003929002
-0.0016761901 -0.03390225 0.009420647 -0.028893353 -0.0030953824 0.08839933 -0.018755428 -0.00054622977
-0.0010143376 -0.007020656 0.03668018 -0.014756893 -0.029694267 -0.006140723 -0.15693857 -0.026393212
00000000: 6f7d c5bd 5b9f 0a3e 3020 33bd 28b0 0e3d
00000010: 5d49 033d 8691 6c3b bb54 263d 1948 3f3b
00000020: 14e1 0e3c 4e4a 3cbd 41d2 32bd eccb 37bd
00000030: 42e7 a0bd 7b90 61bc 48cc febb 2bb7 b3bd
00000040: 30e0 8c3a 4536 99bc 0fb2 b2ba 2baa 973c
00000050: a7d1 6a3c dba6 a2ba 530a 30ba f172 05bb
00000060: ab24 223d 8249 1e3e 6cd2 573b 6c11 16bd
00000070: 00d1 223b a4ab e1bd 62a3 62bd 93c2 08be
00000080: e25d 8b3a a4a3 4cbc 9a41 9eb9 686b ab39
00000090: 5e88 fc39 59dc c4bc bbc1 093d d674 d93a
000000a0: 3c20 9bb9 b829 a6bd 772c 0bba 5738 79ba
000000b0: 6608 9b3c 9981 08bd 0aa7 21bb c660 6138
000000c0: 35d2 4fbd e061 3b3c b341 2c39 c8a7 81bc
000000d0: 331c 01bd b6c4 52be dac3 783d 3279 ac39
000000e0: e3a0 80bc 5847 30bd 117f 47bd d70a 02bd
000000f0: 2982 09bb 01ef b4ba d615 ea3d 43f3 1cbd
00000100: 26ea 993d c05d 11be c6e6 993a f21d 2abc
00000110: 2f52 fab9 cd94 223d e1a1 a6bb 7085 9a3c
00000120: de4e 8cbb e166 0eba 9bcd 27bd 103e 0a3b
00000130: 21f3 0fbc 2279 44bc d0bc 8bba 234e 92bd
00000140: bea8 54ba 793b 233d bba9 b43d c7c1 3c39
00000150: b3ae d53d c52e c43b 9dee d43c 77e5 b1b9
00000160: 8cc2 663d 049d 29bd 9dd3 bd3c d3a3 b139
00000170: 15e0 cd3d 6b88 12bb 0dca aebc 4c8c ad3a
00000180: 2615 abba 6ec8 cfbb b271 59bb 1989 1aba
00000190: 9df2 333e b337 0bbb a5ae 7ebd e3f7 e5b8
000001a0: d23e 91bd 97a4 82bd aa41 83bd af30 9eba
000001b0: 201d bcbc a667 b1bc ca53 c8ba 8b04 9c3a
000001c0: debf 6e3b 1bcd 763d cfbb 7ebd bb77 d3bc
000001d0: b64a cf3b 2374 573d d4fc 623c 83eb 993c
000001e0: e124 b93a cefd 083e 792c 09bd 1a8b 59bc
000001f0: 62fb c1bd 88e6 2e3b a567 363e 25c8 63bd
00000200: baf6 87be 7ef0 1dbd 953d 963c 1ef1 08bc
00000210: b116 163c 2405 05bb ca47 e23d 49c6 8839
00000220: c0ff 1bbc 8d5f f93c 84d7 60bc 764d 783d
00000230: e929 453b 3375 1ebc f0f2 c43b 024a a2bc
00000240: 620e 78ba 0d88 b43c 6e18 5f3a a5fb 993c
00000250: 51f4 c0bb b9df 6f3a 248a 7b36 cdd8 a3ba
00000260: 36d6 a73d ea6f fbbb a9f9 0eba aa5c 91bd
00000270: 9065 3aba 5fc9 cebd 8dd1 cebc 9567 b63d
00000280: ed0b cc39 6756 df3c 69c8 5bb9 3db9 32ba
00000290: b403 9c3a 97c1 9bbd b270 45bb 3bc1 7f3b
000002a0: 3898 1939 f600 773d 3d39 543a eecb e139
000002b0: 9394 003d d5f7 1e3d 0d8d 2cbc cbee ac39
000002c0: 51f3 933c 7531 5b3a 84c9 783a 0a5e 553b
000002d0: a722 543d 1632 9cbe 617a d4bd 76ec f239
000002e0: 77e3 193d eb19 7a3d 9b2f dcbc a58e 6a3d
000002f0: 6550 bc3a e013 94ba ca75 d8bc 8e3c 75bd
00000300: fbb5 ed3c 1555 0ebe 7fa0 41b9 5506 e7ba
00000310: 7cc0 fab7 a9ab 1a3d d512 123a b41f 063e
00000320: bb88 cc3a e18f 783a a3bb 5e3d 174b ac3a
00000330: aa2e 0d3c 26d5 83bb deaa 603a 78e5 2abd
00000340: 470c a539 71b6 0ebd b452 34bc 2cd1 57ba
00000350: 19f2 c3bd a475 65bd ec03 c73c e099 2cb9
00000360: 3106 aabd 66ef bc3d cf7c 5cbd ea85 00bb
00000370: d5f1 a9bb 9a0d f638 f4cb 373d cbe0 7fb9
00000380: 4926 4abb 0cae 183c e64c b43a 81cc 23ba
00000390: d3c1 5abb 7c4d 9db9 6ee7 4bbd e54c df39
000003a0: 0021 e53d 69bb 253b 6134 adbd d87a b039
000003b0: 36cd 84bd a7e1 8a3d 9947 f539 2cfe cdb9
000003c0: 9bb3 dbba 16dd 0abd 0f59 1a3c c1b1 ecbc
000003d0: e6db 4abb b50a b53d fca4 99bc dc30 0fba
000003e0: 86f3 84ba 880d e6bb f53d 163d e5c6 71bc
000003f0: 6441 f3bc 1e38 c9bb 81b4 20be 9436 d8bc

action_model._continuous_distribution.mu.bias f4 [2]
0.019132448 0.0141192665
00000000: a7bb 9c3c 7f54 673c
